…
{'BATCH_SIZE': 256, 'BATCH_SIZE_IN_TEST': 128, 'NUM_WORKERS': 4, 'DATASET': 'cifar100', 'epoch': 100, 'lr': 0.1, 'momentum': 0.9, 'weight_decay': 0.0001, 'warmup': 5, 'mixup_args': {'mixup_alpha': 0.8, 'cutmix_alpha': 1.0, 'cutmix_minmax': None, 'prob': 0.3, 'switch_prob': 0.5, 'mode': 'batch', 'label_smoothing': 0.1, 'num_classes': 100}}
[2023-08-26 13:38:57 trainLogger INFO] : module name: 
resnet_18
[2023-08-26 13:38:57 trainLogger INFO] : Lording Dataset: cifar100
[2023-08-26 13:38:59 trainLogger INFO] : Lording Dataset cifar100 successfully
[2023-08-26 13:39:00 trainLogger INFO] : params: 11.22M, FLOPs: 0.56B (in Tensor(1, 3, 32, 32))
[2023-08-26 13:39:04 trainLogger INFO] : module structure : 
DataParallel(
  (module): ResNet(
    (transforms): Sequential(
      (0): Conv2d(3, 64, kernel_size=(3, 3), stride=(1, 1), padding=(1, 1))
      (1): BatchNorm2d(64, eps=1e-05, momentum=0.1, affine=True, track_running_stats=True)
      (2): ReLU()
    )
    (layers): ModuleList(
      (0): Sequential(
        (0): Residual(
          (conv1): Conv2d(64, 64, kernel_size=(3, 3), stride=(1, 1), padding=(1, 1))
          (bn1): BatchNorm2d(64, eps=1e-05, momentum=0.1, affine=True, track_running_stats=True)
          (conv2): Conv2d(64, 64, kernel_size=(3, 3), stride=(1, 1), padding=(1, 1))
          (bn2): BatchNorm2d(64, eps=1e-05, momentum=0.1, affine=True, track_running_stats=True)
        )
        (1): Residual(
          (conv1): Conv2d(64, 64, kernel_size=(3, 3), stride=(1, 1), padding=(1, 1))
          (bn1): BatchNorm2d(64, eps=1e-05, momentum=0.1, affine=True, track_running_stats=True)
          (conv2): Conv2d(64, 64, kernel_size=(3, 3), stride=(1, 1), padding=(1, 1))
          (bn2): BatchNorm2d(64, eps=1e-05, momentum=0.1, affine=True, track_running_stats=True)
        )
      )
      (1): Sequential(
        (0): Residual(
          (conv1): Conv2d(64, 128, kernel_size=(3, 3), stride=(2, 2), padding=(1, 1))
          (bn1): BatchNorm2d(128, eps=1e-05, momentum=0.1, affine=True, track_running_stats=True)
          (conv2): Conv2d(128, 128, kernel_size=(3, 3), stride=(1, 1), padding=(1, 1))
          (bn2): BatchNorm2d(128, eps=1e-05, momentum=0.1, affine=True, track_running_stats=True)
          (conv3): Conv2d(64, 128, kernel_size=(1, 1), stride=(2, 2))
        )
        (1): Residual(
          (conv1): Conv2d(128, 128, kernel_size=(3, 3), stride=(1, 1), padding=(1, 1))
          (bn1): BatchNorm2d(128, eps=1e-05, momentum=0.1, affine=True, track_running_stats=True)
          (conv2): Conv2d(128, 128, kernel_size=(3, 3), stride=(1, 1), padding=(1, 1))
          (bn2): BatchNorm2d(128, eps=1e-05, momentum=0.1, affine=True, track_running_stats=True)
        )
      )
      (2): Sequential(
        (0): Residual(
          (conv1): Conv2d(128, 256, kernel_size=(3, 3), stride=(2, 2), padding=(1, 1))
          (bn1): BatchNorm2d(256, eps=1e-05, momentum=0.1, affine=True, track_running_stats=True)
          (conv2): Conv2d(256, 256, kernel_size=(3, 3), stride=(1, 1), padding=(1, 1))
          (bn2): BatchNorm2d(256, eps=1e-05, momentum=0.1, affine=True, track_running_stats=True)
          (conv3): Conv2d(128, 256, kernel_size=(1, 1), stride=(2, 2))
        )
        (1): Residual(
          (conv1): Conv2d(256, 256, kernel_size=(3, 3), stride=(1, 1), padding=(1, 1))
          (bn1): BatchNorm2d(256, eps=1e-05, momentum=0.1, affine=True, track_running_stats=True)
          (conv2): Conv2d(256, 256, kernel_size=(3, 3), stride=(1, 1), padding=(1, 1))
          (bn2): BatchNorm2d(256, eps=1e-05, momentum=0.1, affine=True, track_running_stats=True)
        )
      )
      (3): Sequential(
        (0): Residual(
          (conv1): Conv2d(256, 512, kernel_size=(3, 3), stride=(2, 2), padding=(1, 1))
          (bn1): BatchNorm2d(512, eps=1e-05, momentum=0.1, affine=True, track_running_stats=True)
          (conv2): Conv2d(512, 512, kernel_size=(3, 3), stride=(1, 1), padding=(1, 1))
          (bn2): BatchNorm2d(512, eps=1e-05, momentum=0.1, affine=True, track_running_stats=True)
          (conv3): Conv2d(256, 512, kernel_size=(1, 1), stride=(2, 2))
        )
        (1): Residual(
          (conv1): Conv2d(512, 512, kernel_size=(3, 3), stride=(1, 1), padding=(1, 1))
          (bn1): BatchNorm2d(512, eps=1e-05, momentum=0.1, affine=True, track_running_stats=True)
          (conv2): Conv2d(512, 512, kernel_size=(3, 3), stride=(1, 1), padding=(1, 1))
          (bn2): BatchNorm2d(512, eps=1e-05, momentum=0.1, affine=True, track_running_stats=True)
        )
      )
    )
    (out): Sequential(
      (0): AdaptiveAvgPool2d(output_size=(1, 1))
      (1): Flatten(start_dim=1, end_dim=-1)
      (2): Linear(in_features=512, out_features=100, bias=True)
    )
  )
)
[2023-08-26 13:39:04 trainLogger INFO] : Start training
[2023-08-26 13:39:05 trainLogger INFO] : epoch: 1/100, batch: 1/195, lr: 0.0000, loss 4.7182, grad_norm 4.54, Acc@1: 0.00%, Acc@5: 4.69%
[2023-08-26 13:39:08 trainLogger INFO] : epoch: 1/100, batch: 40/195, lr: 0.0040, loss 4.5211, grad_norm 3.54, Acc@1: 2.05%, Acc@5: 8.59%
[2023-08-26 13:39:11 trainLogger INFO] : epoch: 1/100, batch: 79/195, lr: 0.0080, loss 4.2066, grad_norm 3.17, Acc@1: 4.10%, Acc@5: 15.01%
…
